best_model.pth (torch, 70955 bytes, 18 tensors)

fc1.weight f4 [64, 7]
0.09628058 -0.13134338 -0.25961518 0.05430912 -0.36632097 -0.07292071 -0.030066192 -0.1663622
-0.24288283 -0.019122273 0.026957631 0.32275644 0.03232816 0.34208384 -0.23938204 0.08810738
-0.2914963 -0.37126392 0.34311047 -0.039396197 -0.24186192 -0.24935542 0.105193466 0.056323946
0.019703776 -0.16584642 -0.24928577 0.33347532 -0.116574675 0.23858163 0.0018696487 -0.0055850744
-0.25361377 -0.14840402 0.27303723 0.2473474 0.29848635 0.03692149 -0.089319505 0.1692554
0.20569059 -0.09314212 0.32373056 -0.031245682 -0.13618909 -0.23645282 -0.28219125 0.040186584
0.03305164 0.13730548 0.13092013 0.19206776 0.35783145 0.32805184 0.21292219 -0.20250349
0.20083892 -0.1208419 -0.28474185 -0.05286427 -0.20754476 0.23361042 -0.36345756 -0.16069958
-0.11647895 0.16086122 -0.18086988 -0.12607095 0.2697617 0.012250155 0.26173112 0.34252894
0.08976952 0.24079101 0.24785289 0.20707193 0.22318599 -0.31130657 -0.33447513 -0.17098972
0.06239882 -0.20000976 -0.22300026 0.26521716 -0.23773427 -0.18754843 0.19994274 -0.08910766
-0.091175884 -0.21626562 0.27252802 -0.184271 0.31011543 -0.16363458 0.18257162 -0.35137096
-0.16019689 -0.13269556 -0.28941846 -0.04485938 0.18096158 0.34917876 -0.019120008 0.008899957
-0.23994179 0.36714798 -0.058231004 -0.36679533 -0.14304514 -0.069936484 0.2609919 -0.22447763
-0.14997353 -0.16569237 -0.2974758 0.25466332 0.13864109 -0.21843109 -0.17585334 0.30197313
0.061549153 -0.19486804 -0.04682132 0.2074605 0.13995317 -0.28984642 0.13559283 0.26258057
-0.3576041 0.015711445 0.32237002 -0.13792261 0.23663339 -0.30628252 0.29309216 0.31418678
-0.11815354 -0.10945013 0.27838948 0.32093045 -0.04207166 0.10599432 0.092402585 -0.20032139
-0.3523793 0.17928562 0.3404322 0.2579954 0.30811706 0.22204497 -0.31074327 -0.03086856
0.08561054 -0.0133214295 0.015037487 0.36258912 -0.32028338 -0.2611806 0.012158245 -0.1785161
-0.2604123 0.27766758 0.24073634 0.2909012 0.02176891 -0.33204305 0.30281743 -0.20111163
0.014672279 -0.37244582 -0.2378743 -0.16887817 -0.36634257 -0.15063865 -0.25242174 -0.084576815
-0.1580137 -0.18578586 0.041191548 0.32110277 -0.26489744 0.09251407 -0.25287515 -0.27465838
-0.2292529 -0.055528402 -0.11846733 0.2753283 -0.15699753 0.25325066 0.31318277 -0.36601266
-0.2716576 -0.34045926 -0.3742687 -0.108719796 -0.010306805 -0.33397946 0.029908359 -0.3253634
0.15703276 -0.11347926 -0.19144396 -0.10287815 -0.14293686 0.061795413 -0.0025950372 0.19540408
-0.055829257 0.20638731 -0.24637686 0.033055395 0.017988503 -0.3234237 0.17196032 0.14966801
0.019060403 -0.1587603 -0.09872475 -0.2674569 0.28374103 -0.25090805 -0.3037584 0.36230764
0.16538116 0.17249948 -0.10360934 -0.25645542 0.109225124 0.035289705 -0.17566815 -0.32773992
0.18890151 0.18183169 -0.010193855 -0.36338153 -0.33110744 -0.28140154 0.34935746 0.10215598
-0.14776334 -0.13909681 0.005820006 -0.029124409 -0.33305007 -0.17211357 0.3642616 0.15729633
-0.2195376 -0.29264325 0.050364792 -0.06497404 0.25652897 0.25169897 -0.23706037 0.02829171
00000000: c12e c53d e17e 06be 48ec 84be 3d73 5e3d
00000010: 6c8e bbbe 7457 95bd 604d f6bc da5a 2abe
00000020: 47b6 78be 50a6 9cbc 40d6 dc3c 5540 a53e
00000030: 886a 043d 9d25 af3e 9120 75be a471 b43d
00000040: 013f 95be 4e16 bebe 2dac af3e e85d 21bd
00000050: a7aa 77be 0757 7fbe ac6f d73d f0b3 663d
00000060: d069 a13c a5d3 29be c544 7fbe 47bd aa3e
00000070: b4be eebd be4e 743e 000f f53a 0003 b7bb
00000080: aad9 81be 39f7 17be 89cb 8b3e a348 7d3e
00000090: 34d3 983e fd3a 173d 25ed b6bd 4a51 2d3e
000000a0: 8ea0 523e 4cc1 bebd 03c0 a53e f2f6 ffbc
000000b0: 2775 0bbe b020 72be 5f7b 90be b09a 243d
000000c0: 2861 073d cf99 0c3e ed0f 063e 69ad 443e
000000d0: af35 b73e 69f6 a73e 4608 5a3e 135d 4fbe
000000e0: b8a8 4d3e f57b f7bd afc9 91be 3488 58bd
000000f0: 9d86 54be 9237 6f3e 1c17 babe 6e8e 24be
00000100: 848c eebd ceb8 243e f435 39be be18 01be
00000110: 351e 8a3e e0b4 483c 9f01 863e f45f af3e
00000120: 15d9 b73d eb91 763e 26cd 7d3e aa0a 543e
00000130: de8a 643e 9363 9fbe 5340 abbe ee17 2fbe
00000140: e895 7f3d 5ccf 4cbe 2e5a 64be 8bca 873e
00000150: 9d70 73be b20c 40be cabd 4c3e 147e b6bd
00000160: 6cba babd bc74 5dbe cb88 8b3e 89b1 3cbe
00000170: 73c7 9e3e d38f 27be 0ef4 3a3e e5e6 b3be
00000180: a70a 24be 58e1 07be a82e 94be 78be 37bd
00000190: fe4d 393e 8fc7 b23e 90a1 9cbc 20d1 113c
000001a0: 4db3 75be d2fa bb3e a283 6ebd 99cc bbbe
000001b0: 6d7a 12be dc3a 8fbd bba0 853e 77dd 65be
000001c0: a992 19be 43ab 29be c04e 98be 3b63 823e
000001d0: eef7 0d3e 66ac 5fbe e612 34be 399c 9a3e
000001e0: f71a 7c3d 7d8b 47be b6c7 3fbd 8670 543e
000001f0: e24f 0f3e c066 94be d9d8 0a3e f670 863e
00000200: e217 b7be 4ab5 803c af0d a53e 963b 0dbe
00000210: 0650 723e 10d1 9cbe 2d10 963e 17dd a03e
00000220: 7cfa f1bd 6427 e0bd 1189 8e3e ff50 a43e
00000230: 5553 2cbd 8d13 d93d 913d bd3d 0d21 4dbe
00000240: 0f6b b4be a696 373e 214d ae3e f917 843e
00000250: 85c1 9d3e c25f 633e be19 9fbe 10e0 fcbc
00000260: 9454 af3d 2042 5abc cb5f 763c 48a5 b93e
00000270: 2ffc a3be 77b9 85be 6033 473c edcc 36be
00000280: c354 85be 722a 8e3e 9683 763e 01f1 943e
00000290: b754 b23c 8c01 aabe e30a 9b3e 35f0 4dbe
000002a0: 0064 703c 38b1 bebe 5295 73be 66ee 2cbe
000002b0: 4191 bbbe 0541 1abe 6c3d 81be 9c36 adbd
000002c0: 58ce 21be a63e 3ebe 78b8 283d 9567 a43e
000002d0: a3a0 87be 0478 bd3d da78 81be 06a0 8cbe
000002e0: 46c1 6abe c071 63bd 009f f2bd d5f7 8c3e
000002f0: f6c3 20be 12aa 813e 7e59 a03e 0366 bbbe
00000300: b416 8bbe ad50 aebe 26a0 bfbe 7ca8 debd
00000310: e0dd 28bc 5bff aabe 6002 f53c 0896 a6be
00000320: 32cd 203e d067 e8bd e309 44be c8b1 d2bd
00000330: 0a5e 12be 301d 7d3d 8011 2abb 0218 483e
00000340: 38ad 64bd 3257 533e 374a 7cbe 1865 073d
00000350: a05c 933c cb97 a5be 5e16 303e 9242 193e
00000360: 9024 9c3c 0f92 22be 3430 cabd 1cf0 88be
00000370: 8146 913e 0577 80be 3986 9bbe 6380 b93e
00000380: ae59 293e b4a3 303e 2231 d4bd 204e 83be
00000390: 6cb1 df3d f08b 103d 5ae2 33be 87cd a7be
000003a0: 666f 413e 1632 3a3e 2004 27bc 250d babe
000003b0: ea86 a9be dd13 90be fbde b23e 2837 d13d
000003c0: 464f 17be 656f 0ebe c0b5 be3b 5096 eebc
000003d0: 8a85 aabe 8a3e 30be 7f80 ba3e 4a12 213e
000003e0: 77ce 60be 56d5 95be 504b 4e3d 1c11 85bd
000003f0: c457 833e b0de 803e f4bf 72be 04c4 e73c

fc1.bias f4 [64]
-0.06512852 -0.07002011 0.22948042 -0.061431676 0.19084641 0.18397282 0.07727874 -0.2095106
0.3175808 0.29403642 0.042511623 -0.12479195 -0.11064181 -0.17267263 0.2998061 -0.0219962
-0.2799925 -0.19174609 -0.18536904 0.21584007 -0.037940774 0.27797458 -0.36661217 0.33608493
0.06645012 -0.27018625 -0.36228764 -0.037128326 0.28232875 0.23891863 -0.32215264 0.24829623
-0.06935335 -0.053583264 -0.09112837 0.25127706 0.05704034 0.3625081 0.3205236 -0.08228805
0.20108047 -0.22688025 0.31325358 -0.15036042 0.03986971 -0.047583725 -0.10690617 0.30312905
-0.26884118 -0.26864472 -0.19364253 0.24637178 0.29544345 -0.25082046 0.2450359 0.16954437
-0.30786872 -0.32973915 0.19944212 0.3547308 0.21011683 0.051024735 0.36437446 -0.20493421
00000000: 1a62 85bd b466 8fbd eafc 6a3e c89f 7bbd
00000010: 3e6d 433e 5f63 3c3e 5144 9e3d f289 56be
00000020: f399 a23e f18b 963e ab20 2e3d ec92 ffbd
00000030: 2c98 e2bd 18d1 30be 2f80 993e 6031 b4bc
00000040: 2d5b 8fbe 1659 44be 62d1 3dbe 2e05 5d3e
00000050: c967 1bbd af52 8e3e 97b4 bbbe 5313 ac3e
00000060: 0017 883d da55 8abe c47d b9be df13 18bd
00000070: 658d 903e 16a7 743e 31f1 a4be 5e41 7e3e
00000080: 2109 8ebd 207a 5bbd 83a1 babd 63a7 803e
00000090: 22a3 693d a99a b93e ab1b a43e a386 a8bd
000000a0: 0ae8 4d3e 4c53 68be c662 a03e 15f8 19be
000000b0: 6c4e 233d 27e7 42bd 9ff1 dabd bb33 9b3e
000000c0: 8da5 89be cd8b 89be 3a4a 46be e248 7c3e
000000d0: 5d44 973e 8a6b 80be b1ea 7a3e 0a9d 2d3e
000000e0: f8a0 9dbe 92d3 a8be 8e3a 4c3e 479f b53e
000000f0: de28 573e 50ff 503d 4a8f ba3e 46da 51be

fc2.weight f4 [64, 64]
0.02909659 0.034774557 0.0748059 0.074386135 -0.024960935 0.060687613 0.0687966 0.00086930685
0.040622722 -0.07427998 -0.09834572 0.08149105 -0.0670238 0.02059044 -0.076032996 -0.03823254
-0.0355407 -0.09154502 -0.09530728 -0.039090842 0.040560395 -0.108973235 -0.0020618187 -0.023530291
-0.05827059 0.07491559 0.09999138 -0.06483055 -0.0147868395 0.015489191 0.05565436 -0.06160119
-0.10528936 0.03587313 0.049472075 0.03332141 -0.05862937 0.06350799 0.0019333512 0.10912594
-0.08001198 -0.11397229 -0.039464843 -0.11022131 0.014069197 0.041326556 0.006651442 0.12182289
0.050810277 -0.08883291 0.11619247 -0.11295016 0.014416158 0.12574407 0.03569944 -0.010739267
0.047444858 0.10909808 -0.09293463 0.029246345 -0.105066895 0.05408092 -0.010232218 -0.059588794
-0.02743459 -0.06527871 -0.045922622 0.11603786 0.08136901 -0.080856286 0.017377105 -0.083210506
-0.10336631 -0.082484946 -0.012138905 -0.085339695 0.067287356 -0.00016535819 0.014003783 -0.07020433
0.012170151 0.032616284 -0.066246815 0.0548338 -0.119547024 0.066114835 -0.10397869 -0.069123745
0.047419727 -0.07758786 0.0016579032 0.04080841 0.0032421201 0.06578869 0.051521838 -0.122442186
0.009778719 0.04764402 0.045538332 0.08371627 0.07422962 0.10052179 -0.040504545 -0.0055033425
-0.008461714 -0.07222135 0.021246001 -0.032863602 -0.06711685 0.06589901 0.014018014 -0.077676624
0.07405782 0.0019062428 -0.11393973 0.0169501 -0.012679473 0.022442713 -0.07736849 0.048470944
-0.0028290944 -0.1152903 -0.1059454 -0.051608443 0.049046814 -0.074411854 0.025868302 0.073906906
0.11242103 0.0057130754 -0.007483706 0.10910998 0.12331301 -0.09865739 -0.084330484 -0.0011930687
0.04058274 -0.06041172 -0.02163764 -0.08122882 0.09309676 0.036306188 -0.03286867 0.027195983
-0.11019291 -0.011971325 0.103413574 -0.059556812 -0.08064304 0.008073248 0.048777357 -0.03491153
0.018488318 -0.044365913 0.068664715 -0.042478837 -0.068425596 0.05875972 -0.00028578937 -0.0067234337
0.0902198 0.011648133 -0.038186766 -0.071074024 -0.083088815 -0.041426316 -0.023242235 -0.0023257658
-0.09213315 0.101431385 -0.023780514 0.03929454 -0.0677813 0.035803884 -0.03664972 -0.012224287
-0.092642814 0.04324448 -0.019280657 -0.105353475 0.095726654 -0.11785225 0.12044563 0.070360914
0.09137773 0.09335688 -0.05596012 -0.11929496 0.047206566 -0.074138194 -0.020226732 0.09238156
-0.09135472 0.11787066 0.03874944 -0.1233398 0.052213132 0.115960754 0.10641036 -0.052071802
0.067722365 0.10402602 -0.0767703 0.030076802 -0.0814475 0.039871335 -0.06529747 -0.08832933
-0.05725026 -0.116098896 -0.10849377 0.055134997 -0.040391985 -0.11339162 0.0011711481 0.09195265
0.054310232 0.08272149 -0.06909059 -0.09343522 0.038587525 0.048846528 -0.055768788 0.089255765
-0.034960084 -0.036021605 -0.010523964 0.057016075 0.09572907 0.1217411 0.037844375 -0.05086751
-0.018889189 -0.119729966 -0.116243996 0.032337606 -0.07430087 -0.0889556 0.061662577 0.07736051
-0.081410155 0.099455334 -0.110063255 0.08116859 -0.008491859 0.020390522 0.06468449 -0.1145746
-0.0022742152 0.116595745 0.07072272 0.0617041 0.024402454 0.021304607 0.028084708 0.11085431
00000000: f95b ee3c c46f 0e3d d633 993d c257 983d
00000010: e07a ccbc 9393 783d 3be5 8c3d 32e2 633a
00000020: 0364 263d 1a20 98bd 7b69 c9bd c8e4 a63d
00000030: c643 89bd 48ad a83c 30b7 9bbd b999 1cbd
00000040: 2093 11bd f57b bbbd 7730 c3bd b81d 20bd
00000050: a822 263d 5c2d dfbd 941f 07bb 99c2 c0bc
00000060: 24ad 6ebd 586d 993d 48c8 cc3d e1c5 84bd
00000070: 8044 72bc 60c6 7d3c d4f5 633d 8851 7cbd
00000080: f3a1 d7bd b4ef 123d 3ba3 4a3d 087c 083d
00000090: 5a25 70bd 7a10 823d 8068 fd3a 6c7d df3d
000000a0: 52dd a3bd 4e6a e9bd e3a5 21bd b6bb e1bd
000000b0: 7d82 663c 0946 293d 57f4 d93b 487e f93d
000000c0: 701e 503d 07ee b5bd 51f6 ed3d 6a52 e7bd
000000d0: c031 6c3c 0ec3 003e 9339 123d c0f3 2fbc
000000e0: 8a55 423d d06e df3d 8354 bebd 0896 ef3c
000000f0: 502d d7bd f483 5d3d 08a5 27bc 6113 74bd
00000100: 81be e0bc d8b0 85bd 5c19 3cbd 42a5 ed3d
00000110: cca4 a63d fb97 a5bd 6e5a 8e3c 456a aabd
00000120: b7b1 d3bd deed a8bd 42e2 46bc 94c6 aebd
00000130: f4cd 893d 0064 2db9 2070 653c 4ac7 8fbd
00000140: 5065 473c a798 053d 69ac 87bd 6899 603d
00000150: 12d5 f4bd 3767 873d c8f2 d4bd c090 8dbd
00000160: 303b 423d 62e6 9ebd 004e d93a b826 273d
00000170: c079 543b 38bc 863d 9008 533d f8c2 fabd
00000180: ec36 203c 6026 433d 6786 3a3d 7073 ab3d
00000190: b305 983d 5ede cd3d 18e8 25bd 6255 b4bb
000001a0: 00a3 0abc cae8 93bd 180c ae3c fc9b 06bd
000001b0: 8f74 89bd 0ff6 863d d0ab 653c ec14 9fbd
000001c0: a0ab 973d e5da f93a 3c59 e9bd f0da 8a3c
000001d0: 90bd 4fbc c8d9 b73c 5f73 9ebd 7889 463d
000001e0: 5468 39bb 521d ecbd e7f9 d8bd 6063 53bd
000001f0: 50e5 483d 3e65 98bd c3e9 d33c 815c 973d
00000200: ff3c e63d c034 bb3b e039 f5bb 0e75 df3d
00000210: 888b fc3d e30c cabd 76b5 acbd be60 9cba
00000220: 163a 263d 4872 77bd 6c41 b1bc 4c5b a6bd
00000230: 84a9 be3d ccb5 143d 4ca1 06bd 1cca de3c
00000240: d2ac e1bd 6023 44bc 7fca d33d d8f1 73bd
00000250: 2e28 a5bd a845 043c c4ca 473d 64ff 0ebd
00000260: d074 973c 08b9 35bd 16a0 8c3d 4afe 2dbd
00000270: b822 8cbd 08ae 703d 00d6 95b9 4050 dcbb
00000280: 29c5 b83d d0d7 3e3c ba69 1cbd 428f 91bd
00000290: 782a aabd a4ae 29bd 8066 bebc e06b 18bb
000002a0: 4eb0 bcbd 42bb cf3d 5acf c2bc 50f3 203d
000002b0: ecd0 8abd 18a7 123d 041e 16bd 6048 48bc
000002c0: 84bb bdbd 2021 313d 78f2 9dbc 90c3 d7bd
000002d0: 560c c43d 855c f1bd 33ac f63d 6219 903d
000002e0: 3f24 bb3d e431 bf3d 7036 65bd ea50 f4bd
000002f0: ac5b 413d c4d5 97bd 88b2 a5bc 8b32 bd3d
00000300: 2f18 bbbd 2c66 f13d bcb7 1e3d 9499 fcbd
00000310: 70dd 553d d57c ed3d aded d93d 3e49 55bd
00000320: 06b2 8a3d 980b d53d bf39 9dbd a063 f63c
00000330: f2cd a6bd 2050 233d aeba 85bd 02e6 b4bd
00000340: 407f 6abd 42c5 edbd fb31 debd 3cd5 613d
00000350: 1172 25bd de39 e8bd 3681 993a ac51 bc3d
00000360: 6874 5e3d e269 a93d 5e7f 8dbd f75a bfbd
00000370: f40d 1e3d 4c13 483d d06d 64bd bacb b63d
00000380: 4e32 0fbd 648b 13bd b46c 2cbc b089 693d
00000390: 9a0d c43d 6653 f93d b402 1b3d 735a 50bd
000003a0: 80bd 9abc fc34 f5bd 5511 eebd 7074 043d
000003b0: 0e2b 98bd 5b2e b6bd e691 7c3d 306f 9e3d
000003c0: 5eba a6bd 3daf cb3d d868 e1bd b83b a63d
000003d0: 7021 0bbc 060a a73c 4d79 843d 16a6 eabd
000003e0: 000b 15bb c0c9 ee3d 13d7 903d 70bd 7c3d
000003f0: a8e7 c73c 0087 ae3c e711 e63c 9607 e33d

fc2.bias f4 [64]
-0.07327267 -0.07741885 0.099312246 -0.102920435 0.06647114 0.08994696 -0.10387226 0.077984296
0.08589981 0.08256297 0.120032325 0.007309436 -0.10352126 -0.07202961 -0.006816836 -0.11534938
0.11404207 0.121559024 0.097165324 0.12033324 0.056606818 0.11233479 0.11091732 -0.016253784
0.08488692 -0.073944226 -0.046511706 -0.046410132 0.039651494 0.0038682618 0.09652819 0.10290983
0.09420955 0.06226583 0.022242894 0.10785405 0.00310121 -0.074068576 0.118877284 -0.09859361
0.004244251 -0.033937734 0.0069845617 0.014668504 -0.075382926 -0.118818685 0.021238908 0.1202822
0.11750341 0.043081477 0.012160811 0.044338156 -0.09274909 -0.021357467 0.0814942 0.11070789
0.01090752 0.009135914 -0.061073393 -0.031390954 -0.00954403 -0.112348564 0.0072722817 0.06235502
00000000: fb0f 96bd c68d 9ebd 3864 cb3d f3c7 d2bd
00000010: 0522 883d 1d36 b83d fbba d4bd 3bb6 9f3d
00000020: 3dec af3d c616 a93d 82d3 f53d fe83 ef3b
00000030: f402 d4bd 4384 93bd c45f dfbb 4c3c ecbd
00000040: e48e e93d f0f3 f83d 9dfe c63d 4671 f63d
00000050: 8ddc 673d c80f e63d 9f28 e33d a826 85bc
00000060: 32d9 ad3d 1270 97bd 0f83 3ebd 8d18 3ebd
00000070: 9b69 223d aa82 7d3b 92b0 c53d 64c2 d23d
00000080: f0f0 c03d 740a 7f3d bb36 b63c 96e2 dc3d
00000090: ac3d 4b3b 44b1 97bd ef75 f33d 72eb c9bd
000000a0: 5c13 8b3b 4b02 0bbd c0de e43b 2a54 703c
000000b0: 5d62 9abd 3657 f3bd 38fd ad3c 8456 f63d
000000c0: a1a5 f03d 3476 303d 233e 473c ed9b 353d
000000d0: 3cf3 bdbd dbf5 aebc 6ee6 a63d d1ba e23d
000000e0: 74b5 323c cdae 153c 1828 7abd cd93 00bd
000000f0: 905e 1cbc 0117 e6bd 524c ee3b fa67 7f3d

fc3.weight f4 [10, 64]
-0.0005028893 -0.08066069 -0.06746936 0.106639996 0.02179611 0.039561823 -0.022797877 0.067972235
0.031554945 0.06731205 0.09696061 0.013091719 -0.054457165 0.112528734 0.066435784 -0.045661706
0.020380396 0.03793169 0.11243006 -0.084466144 -0.02718347 -0.070049085 0.102599636 -0.016082838
0.08420816 0.08356144 0.029302545 0.04337845 0.045715462 -0.06238539 0.043278232 0.016989902
-0.075385414 -0.015771654 0.12638725 -0.1136355 -0.11161168 0.020011574 -0.005666077 -0.069042124
-0.03496925 0.08493569 -0.017504677 0.046140835 -0.08494994 -0.097137146 0.0801075 -0.0583948
0.08576168 -0.04851541 0.08573815 0.07182538 0.00729993 0.11078372 0.013944341 0.008879187
-0.0409909 -0.04967568 -0.119323656 0.1032184 0.04681225 -0.024149602 0.01652592 -0.02184469
-0.057567827 -0.11362261 0.04220673 0.043737166 0.061982956 -0.060344983 -0.117033586 0.08455465
-0.009701497 0.026175201 -0.06808974 0.10717907 -0.116462186 0.06768907 -0.07105933 0.04427936
-0.0056485794 0.08165679 0.080467105 -0.1277806 0.11464144 -0.0067970622 0.08986409 0.09502873
0.07578759 -0.04675351 0.020140706 0.11089204 -0.018489508 -0.06865075 -0.0021245396 -0.05138032
-0.09036588 -0.072678395 0.061721906 -0.08728879 0.070287414 0.07125144 0.014970666 -0.036316406
0.08815481 -0.052416764 -0.09109676 0.09587983 0.03266078 0.10808528 -0.09923676 0.032685984
-0.03814613 0.093859866 0.10092231 -0.04691999 0.111491635 -0.07221246 -0.11408157 0.08808071
-0.0542026 0.02059543 -0.03844881 -0.074339435 -0.12546678 0.08725777 -0.043395393 -0.099320754
-0.10249648 0.059916094 -0.096846245 0.10130217 -0.10467985 0.10315415 0.006604419 -0.06965731
0.048272815 -0.07857068 0.08650275 -0.067098334 0.03958436 0.091328606 0.031427987 -0.03150242
0.10020442 -0.09095329 0.09428067 0.121148154 -0.081770286 -0.031274784 0.05630778 0.01711258
0.033033952 0.11653294 0.09448255 0.02320932 -0.12499844 -0.06431773 -0.005496509 -0.021098226
-0.034819875 -0.007692184 0.07977873 0.06993794 -0.014250554 -0.030046433 0.07220573 -0.059116434
-0.08612226 0.014215845 0.11949304 -0.024191575 -0.057907853 0.03705538 0.062664114 0.012122566
0.11857587 0.018780375 0.08581609 -0.017538408 -0.102348045 -0.094279595 0.006168995 0.05421193
0.116452366 0.07717222 0.034128517 0.056078542 0.11760604 0.097114116 0.00676056 -0.043033443
-0.063951865 -0.08525423 -0.035171345 0.0965627 0.037712768 -0.120731935 -0.07846176 0.012809755
0.007362897 -0.06208839 -0.04111499 -0.0941886 0.064165436 -0.08222233 0.051473647 0.07438886
0.10773019 0.057883658 0.0005118179 -0.11096103 -0.09043757 -0.11047348 0.03450732 -0.02223854
-0.07635823 -0.039930556 0.09926937 -0.013131764 0.10610813 -0.04630332 -0.050711397 -0.0725784
-0.04063953 0.048753563 -0.005340649 0.06771757 -0.06919021 -0.08405326 0.049951736 0.10490002
0.07352564 -0.036144007 0.09278233 0.11464064 -0.08901757 -0.12430141 0.10920175 -0.11588425
0.086699545 -0.03620377 -0.046268288 0.11053363 0.00195314 -0.075617716 0.050344676 0.01749773
0.050044768 0.04270726 -0.11966112 -0.080998756 0.031617243 -0.11314216 -0.042585496 -0.0004686258
00000000: 54d4 03ba 6f31 a5bd 602d 8abd 1266 da3d
00000010: c18d b23c 940b 223d 9dc2 babc 0735 8b3d
00000020: c23f 013d e6da 893d 4993 c63d a67e 563c
00000030: 7a0e 5fbd 7775 e63d 7c0f 883d c507 3bbd
00000040: caf4 a63c 435e 1b3d bb41 e63d 96fc acbd
00000050: deaf debc e575 8fbd c21f d23d 28c0 83bc
00000060: 5475 ac3d 4322 ab3d e40b f03c 9aad 313d
00000070: 2340 3b3d d387 7fbd 8444 313d 682e 8b3c
00000080: ab63 9abd 8e33 81bc a96b 013e bbb9 e8bd
00000090: aa94 e4bd 50ef a33c 80aa b9bb f565 8dbd
000000a0: eb3b 0fbd c3f2 ad3d f865 8fbc 2cfe 3c3d
000000b0: 3cfa adbd d7ef c6bd 670f a43d 632f 6fbd
000000c0: d2a3 af3d 18b8 46bd 7c97 af3d 2f19 933d
000000d0: 4034 ef3b 93e2 e23d ce76 643c 027a 113c
000000e0: 13e6 27bd ba78 4bbd f65f f4bd 2b64 d33d
000000f0: 34be 3f3d 63d5 c5bc 5e61 873c a3f3 b2bc
00000100: 3ecc 6bbd f9b2 e8bd f7e0 2c3d be25 333d
00000110: d7e1 7d3d 4d2c 77bd 4eaf efbd fd2a ad3d
00000120: 07f3 1ebc 606d d63c a272 8bbd b380 db3d
00000130: ba83 eebd 91a0 8a3d 8e87 91bd 465e 353d
00000140: b817 b9bb ad3b a73d f0cb a43d ebd8 02be
00000150: 22c9 ea3d e4b9 debb aa0a b83d 6c9e c23d
00000160: 8636 9b3d 9c80 3fbd 1ffe a43c 5e1b e33d
00000170: 4f77 97bc c498 8cbd dc3b 0bbb 2c74 52bd
00000180: bf11 b9bd 69d8 94bd 1cd0 7c3d 77c4 b2bd
00000190: d9f2 8f3d 46ec 913d 8647 753c 83c0 14bd
000001a0: 828a b43d f6b2 56bd f090 babd a55c c43d
000001b0: 4fc7 053d d15b dd3d a43c cbbd bde1 053d
000001c0: 1e3f 1cbd 9a39 c03d 5bb0 ce3d 2d2f 40bd
000001d0: ba55 e43d 20e4 93bd 99a3 e9bd a963 b43d
000001e0: 8c03 5ebd bfb7 a83c 807c 1dbd 463f 98bd
000001f0: 5d7a 00be 34b4 b23d 5ebf 31bd ae68 cbbd
00000200: ade9 d1bd 946a 753d 5357 c6bd 8377 cf3d
00000210: 6462 d6bd 7c42 d33d e269 d83b 7ea8 8ebd
00000220: b7b9 453d aae9 a0bd 5b28 b13d da6a 89bd
00000230: 3623 223d 7e0a bb3d a2ba 003d ae08 01bd
00000240: fa37 cd3d b845 babd 3916 c13d 861c f83d
00000250: 2e77 a7bd fd19 00bd fda2 663d ae2f 8c3c
00000260: 9c4e 073d d2a8 ee3d 1180 c13d 7921 be3c
00000270: 2fff ffbd 04b9 83bd 0f1c b4bb 30d6 acbc
00000280: 499f 0ebd b70e fcbb 0863 a33d 9f3b 8f3d
00000290: 287b 69bc f023 f6bc 99e0 933d 1324 72bd
000002a0: de60 b0bd 93e9 683c c4b8 f43d 692d c6bc
000002b0: c930 6dbd 62c7 173d 0b56 803d ba9d 463c
000002c0: e8d7 f23d 4dd9 993c 59c0 af3d b5ac 8fbc
000002d0: da9b d1bd a915 c1bd 4825 ca3b 540d 5e3d
000002e0: 947e ee3d 780c 9e3d 58ca 0b3d 9db2 653d
000002f0: 6fdb f03d c4e3 c63d b087 dd3b d643 30bd
00000300: 32f9 82bd c599 aebd d40f 10bd aac2 c53d
00000310: b478 1a3d 4e42 f7bd 8fb0 a0bd 02e0 513c
00000320: 7544 f13b 6550 7ebd 3168 28bd f4e5 c0bd
00000330: 2b69 833d 2e64 a8bd 08d6 523d 3059 983d
00000340: a5a1 dc3d 6a17 6d3d 852b 063a 893f e3bd
00000350: 5537 b9bd eb3f e2bd 8c57 0d3d 992d b6bc
00000360: b461 9cbd 398e 23bd bd4d cb3d 9c26 57bc
00000370: 384f d93d 8da8 3dbd c1b6 4fbd fca3 94bd
00000380: a375 26bd d1b1 473d 9c00 afbb 82af 8a3d
00000390: 99b3 8dbd 1e24 acbd 319a 4c3d d2d5 d63d
000003a0: 9c94 963d bd0b 14bd aa04 be3d b6c8 ea3d
000003b0: d84e b6bd bd91 febd 2ba5 df3d b954 edbd
000003c0: 888f b13d 684a 14bd d183 3dbd 755f e23d
000003d0: 4000 003b 76dd 9abd 3836 4e3d 6657 8f3c
000003e0: befb 4c3d cfed 2e3d e410 f5bd ade2 a5bd
000003f0: 1581 013d 14b7 e7bd 216e 2ebd e4b1 f5b9

fc3.bias f4 [10]
-0.09892917 -0.12115127 -0.067967616 -0.016408319 -0.053171083 -0.08668443 -0.050590884 0.032358572
0.014320053 -0.09029052
00000000: 609b cabd 281e f8bd 9b32 8bbd bd6a 86bc
00000010: ecc9 59bd 9b87 b1bd 6338 4fbd 6c8a 043d
00000020: a89e 6a3c 3cea b8bd

exp_avg f4 [64, 7]
0.055227734 0.011831238 0.011831238 0.0017903305 0.0 0.0 0.0 0.0
0.0 0.0 0.0 0.0 0.0 0.0 0.0 0.0
0.0 0.0 0.0 0.0 0.0 0.0 0.0 0.0
0.0 0.0 0.0 0.0 0.0 0.0 0.0 0.0
0.0 0.0 0.0 -0.10700534 -0.02418238 -0.02418238 -0.0024408277 0.0
0.0 0.0 -0.08957735 -0.018825885 -0.018825885 -0.0029126382 0.0 0.0
0.0 -0.062450603 -0.013838608 -0.013838608 -0.0027087037 0.0 0.0 0.0
-0.24062878 -0.055584144 -0.055584144 -0.0055633048 0.0 0.0 0.0 0.0
0.0 0.0 0.0 0.0 0.0 0.0 0.112011865 0.026501741
0.026501741 0.002193435 0.0 0.0 0.0 0.0 0.0 0.0
0.0 0.0 0.0 0.0 0.0 0.0 0.0 0.0
0.0 0.0 0.0 0.0 0.0 0.0 0.0 0.0
0.0 0.0 0.0 0.0 0.0 0.0 0.0 0.0
0.0 0.20569561 0.0444744 0.0444744 0.0052630296 0.0 0.0 0.0
0.0 0.0 0.0 0.0 0.0 0.0 0.0 0.13467549
0.029738426 0.029738426 0.0036304784 0.0 0.0 0.0 0.055446625 0.012657691
0.012657691 0.0014892719 0.0 0.0 0.0 0.0 0.0 0.0
0.0 0.0 0.0 0.0 0.031020585 0.0075874478 0.0075874478 0.00089253124
0.0 0.0 0.0 -0.17486519 -0.03847568 -0.03847568 -0.0053312127 0.0
0.0 0.0 -0.41085666 -0.09290217 -0.09290217 -0.009970894 0.0 0.0
0.0 -0.07927881 -0.017840324 -0.017840324 -0.0021552541 0.0 0.0 0.0
0.0 0.0 0.0 0.0 0.0 0.0 0.0 0.0
0.0 0.0 0.0 0.0 0.0 0.0 0.0 0.0
0.0 0.0 0.0 0.0 0.0 0.26188365 0.058745295 0.058745295
0.006015986 0.0 0.0 0.0 0.0 0.0 0.0 0.0
0.0 0.0 0.0 0.0 0.0 0.0 0.0 0.0
0.0 0.0 0.0 0.0 0.0 0.0 0.0 0.0
0.0 0.0 0.0 0.0 0.0 0.0 0.0 0.0
-0.06801522 -0.015641168 -0.015641168 -0.0012524512 0.0 0.0 0.0 0.0
0.0 0.0 0.0 0.0 0.0 0.0 0.07219078 0.012083917
0.012083917 0.0037015534 0.0 0.0 0.0 0.0 0.0 0.0
0.0 0.0 0.0 0.0 0.085745186 0.017969202 0.017969202 0.002583872
00000000: 7a36 623d cfd7 413c cfd7 413c 86a9 ea3a
00000010: 0000 0000 0000 0000 0000 0000 0000 0000
00000020: 0000 0000 0000 0000 0000 0000 0000 0000
00000030: 0000 0000 0000 0000 0000 0000 0000 0000
00000040: 0000 0000 0000 0000 0000 0000 0000 0000
00000050: 0000 0000 0000 0000 0000 0000 0000 0000
00000060: 0000 0000 0000 0000 0000 0000 0000 0000
00000070: 0000 0000 0000 0000 0000 0000 0000 0000
00000080: 0000 0000 0000 0000 0000 0000 9e25 dbbd
00000090: 201a c6bc 201a c6bc 4bf6 1fbb 0000 0000
000000a0: 0000 0000 0000 0000 5474 b7bd be38 9abc
000000b0: be38 9abc f6e1 3ebb 0000 0000 0000 0000
000000c0: 0000 0000 34cc 7fbd 54bb 62bc 54bb 62bc
000000d0: 8284 31bb 0000 0000 0000 0000 0000 0000
000000e0: 6467 76be 33ac 63bd 33ac 63bd 624c b6bb
000000f0: 0000 0000 0000 0000 0000 0000 0000 0000
00000100: 0000 0000 0000 0000 0000 0000 0000 0000
00000110: 0000 0000 0000 0000 7a66 e53d 2e1a d93c
00000120: 2e1a d93c bcbf 0f3b 0000 0000 0000 0000
00000130: 0000 0000 0000 0000 0000 0000 0000 0000
00000140: 0000 0000 0000 0000 0000 0000 0000 0000
00000150: 0000 0000 0000 0000 0000 0000 0000 0000
00000160: 0000 0000 0000 0000 0000 0000 0000 0000
00000170: 0000 0000 0000 0000 0000 0000 0000 0000
00000180: 0000 0000 0000 0000 0000 0000 0000 0000
00000190: 0000 0000 0000 0000 0000 0000 0000 0000
000001a0: 0000 0000 dfa1 523e ca2a 363d ca2a 363d
000001b0: 7e75 ac3b 0000 0000 0000 0000 0000 0000
000001c0: 0000 0000 0000 0000 0000 0000 0000 0000
000001d0: 0000 0000 0000 0000 0000 0000 5fe8 093e
000001e0: 009e f33c 009e f33c 52ed 6d3b 0000 0000
000001f0: 0000 0000 0000 0000 001c 633d 3462 4f3c
00000200: 3462 4f3c ac33 c33a 0000 0000 0000 0000
00000210: 0000 0000 0000 0000 0000 0000 0000 0000
00000220: 0000 0000 0000 0000 0000 0000 0000 0000
00000230: e21e fe3c 20a0 f83b 20a0 f83b c2f8 693a
00000240: 0000 0000 0000 0000 0000 0000 dc0f 33be
00000250: ad98 1dbd ad98 1dbd 74b1 aebb 0000 0000
00000260: 0000 0000 0000 0000 ce5b d2be 7e43 bebd
00000270: 7e43 bebd f65c 23bc 0000 0000 0000 0000
00000280: 0000 0000 ee5c a2bd df25 92bc df25 92bc
00000290: 2a3f 0dbb 0000 0000 0000 0000 0000 0000
000002a0: 0000 0000 0000 0000 0000 0000 0000 0000
000002b0: 0000 0000 0000 0000 0000 0000 0000 0000
000002c0: 0000 0000 0000 0000 0000 0000 0000 0000
000002d0: 0000 0000 0000 0000 0000 0000 0000 0000
000002e0: 0000 0000 0000 0000 0000 0000 0000 0000
000002f0: 0000 0000 9d15 863e e89e 703d e89e 703d
00000300: c021 c53b 0000 0000 0000 0000 0000 0000
00000310: 0000 0000 0000 0000 0000 0000 0000 0000
00000320: 0000 0000 0000 0000 0000 0000 0000 0000
00000330: 0000 0000 0000 0000 0000 0000 0000 0000
00000340: 0000 0000 0000 0000 0000 0000 0000 0000
00000350: 0000 0000 0000 0000 0000 0000 0000 0000
00000360: 0000 0000 0000 0000 0000 0000 0000 0000
00000370: 0000 0000 0000 0000 0000 0000 0000 0000
00000380: 904b 8bbd e821 80bc e821 80bc 4a29 a4ba
00000390: 0000 0000 0000 0000 0000 0000 0000 0000
000003a0: 0000 0000 0000 0000 0000 0000 0000 0000
000003b0: 0000 0000 0000 0000 c2d8 933d 9ffb 453c
000003c0: 9ffb 453c c395 723b 0000 0000 0000 0000
000003d0: 0000 0000 0000 0000 0000 0000 0000 0000
000003e0: 0000 0000 0000 0000 0000 0000 0000 0000
000003f0: 2c9b af3d 2634 933c 2634 933c 2e56 293b

exp_avg_sq f4 [64, 7]
0.00013480506 6.1903306e-06 6.1903306e-06 1.379334e-07 0.0 0.0 0.0 0.0
0.0 0.0 0.0 0.0 0.0 0.0 0.0 0.0
0.0 0.0 0.0 0.0 0.0 0.0 0.0 0.0
0.0 0.0 0.0 0.0 0.0 0.0 0.0 0.0
0.0 0.0 0.0 0.00056859036 2.9074137e-05 2.9074137e-05 3.091759e-07 0.0
0.0 0.0 0.0003541793 1.595882e-05 1.595882e-05 3.568614e-07 0.0 0.0
0.0 0.00016821103 8.466587e-06 8.466587e-06 3.0485484e-07 0.0 0.0 0.0
0.0033806302 0.00017714042 0.00017714042 1.9427648e-06 0.0 0.0 0.0 0.0
0.0 0.0 0.0 0.0 0.0 0.0 0.000626875 3.486552e-05
3.4865516e-05 2.6293495e-07 0.0 0.0 0.0 0.0 0.0 0.0
0.0 0.0 0.0 0.0 0.0 0.0 0.0 0.0
0.0 0.0 0.0 0.0 0.0 0.0 0.0 0.0
0.0 0.0 0.0 0.0 0.0 0.0 0.0 0.0
0.0 0.002077696 9.80652e-05 9.80652e-05 1.4347838e-06 0.0 0.0 0.0
0.0 0.0 0.0 0.0 0.0 0.0 0.0 0.000809688
3.9225844e-05 3.9225844e-05 5.9352647e-07 0.0 0.0 0.0 0.0001249596 6.4978867e-06
6.4978876e-06 9.018919e-08 0.0 0.0 0.0 0.0 0.0 0.0
0.0 0.0 0.0 0.0 8.0261e-05 4.7621807e-06 4.7621807e-06 6.435015e-08
0.0 0.0 0.0 0.0013769256 6.648181e-05 6.648181e-05 1.3035007e-06 0.0
0.0 0.0 0.0071184393 0.00036068354 0.00036068354 4.1113562e-06 0.0 0.0
0.0 0.00027377417 1.39509175e-05 1.39509175e-05 1.990883e-07 0.0 0.0 0.0
0.0 0.0 0.0 0.0 0.0 0.0 0.0 0.0
0.0 0.0 0.0 0.0 0.0 0.0 0.0 0.0
0.0 0.0 0.0 0.0 0.0 0.0028480827 0.00014323118 0.00014323118
1.527985e-06 0.0 0.0 0.0 0.0 0.0 0.0 0.0
0.0 0.0 0.0 0.0 0.0 0.0 0.0 0.0
0.0 0.0 0.0 0.0 0.0 0.0 0.0 0.0
0.0 0.0 0.0 0.0 0.0 0.0 0.0 0.0
0.00026136002 1.3501031e-05 1.3501031e-05 1.412714e-07 0.0 0.0 0.0 0.0
0.0 0.0 0.0 0.0 0.0 0.0 0.00036688792 1.1667751e-05
1.1667751e-05 7.770657e-07 0.0 0.0 0.0 0.0 0.0 0.0
0.0 0.0 0.0 0.0 0.00033555136 1.4900942e-05 1.4900942e-05 3.138761e-07
00000000: 755a 0d39 89b6 cf36 89b6 cf36 d81a 1434
00000010: 0000 0000 0000 0000 0000 0000 0000 0000
00000020: 0000 0000 0000 0000 0000 0000 0000 0000
00000030: 0000 0000 0000 0000 0000 0000 0000 0000
00000040: 0000 0000 0000 0000 0000 0000 0000 0000
00000050: 0000 0000 0000 0000 0000 0000 0000 0000
00000060: 0000 0000 0000 0000 0000 0000 0000 0000
00000070: 0000 0000 0000 0000 0000 0000 0000 0000
00000080: 0000 0000 0000 0000 0000 0000 740d 153a
00000090: 3ce4 f337 3ce4 f337 d0fc a534 0000 0000
000000a0: 0000 0000 0000 0000 24b1 b939 4edf 8537
000000b0: 4edf 8537 a896 bf34 0000 0000 0000 0000
000000c0: 0000 0000 ce61 3039 b70b 0e37 b70b 0e37
000000d0: eeaa a334 0000 0000 0000 0000 0000 0000
000000e0: 908d 5d3b c5be 3939 c5be 3939 7260 0236
000000f0: 0000 0000 0000 0000 0000 0000 0000 0000
00000100: 0000 0000 0000 0000 0000 0000 0000 0000
00000110: 0000 0000 0000 0000 de54 243a 913c 1238
00000120: 903c 1238 8129 8d34 0000 0000 0000 0000
00000130: 0000 0000 0000 0000 0000 0000 0000 0000
00000140: 0000 0000 0000 0000 0000 0000 0000 0000
00000150: 0000 0000 0000 0000 0000 0000 0000 0000
00000160: 0000 0000 0000 0000 0000 0000 0000 0000
00000170: 0000 0000 0000 0000 0000 0000 0000 0000
00000180: 0000 0000 0000 0000 0000 0000 0000 0000
00000190: 0000 0000 0000 0000 0000 0000 0000 0000
000001a0: 0000 0000 f429 083b 5aa8 cd38 5aa8 cd38
000001b0: cc92 c035 0000 0000 0000 0000 0000 0000
000001c0: 0000 0000 0000 0000 0000 0000 0000 0000
000001d0: 0000 0000 0000 0000 0000 0000 3e41 543a
000001e0: 6e86 2438 6e86 2438 d452 1f35 0000 0000
000001f0: 0000 0000 0000 0000 9607 0339 6c08 da36
00000200: 6e08 da36 08ae c133 0000 0000 0000 0000
00000210: 0000 0000 0000 0000 0000 0000 0000 0000
00000220: 0000 0000 0000 0000 0000 0000 0000 0000
00000230: cc51 a838 d2ca 9f36 d2ca 9f36 de30 8a33
00000240: 0000 0000 0000 0000 0000 0000 f579 b43a
00000250: 266c 8b38 266c 8b38 f1f3 ae35 0000 0000
00000260: 0000 0000 0000 0000 cc41 e93b 201a bd39
00000270: 201a bd39 48f4 8936 0000 0000 0000 0000
00000280: 0000 0000 5989 8f39 bc0e 6a37 bc0e 6a37
00000290: fac4 5534 0000 0000 0000 0000 0000 0000
000002a0: 0000 0000 0000 0000 0000 0000 0000 0000
000002b0: 0000 0000 0000 0000 0000 0000 0000 0000
000002c0: 0000 0000 0000 0000 0000 0000 0000 0000
000002d0: 0000 0000 0000 0000 0000 0000 0000 0000
000002e0: 0000 0000 0000 0000 0000 0000 0000 0000
000002f0: 0000 0000 e6a6 3a3b 5430 1639 5430 1639
00000300: 2a15 cd35 0000 0000 0000 0000 0000 0000
00000310: 0000 0000 0000 0000 0000 0000 0000 0000
00000320: 0000 0000 0000 0000 0000 0000 0000 0000
00000330: 0000 0000 0000 0000 0000 0000 0000 0000
00000340: 0000 0000 0000 0000 0000 0000 0000 0000
00000350: 0000 0000 0000 0000 0000 0000 0000 0000
00000360: 0000 0000 0000 0000 0000 0000 0000 0000
00000370: 0000 0000 0000 0000 0000 0000 0000 0000
00000380: 2607 8939 7d82 6237 7d82 6237 63b0 1734
00000390: 0000 0000 0000 0000 0000 0000 0000 0000
000003a0: 0000 0000 0000 0000 0000 0000 0000 0000
000003b0: 0000 0000 0000 0000 dd5a c039 9cc0 4337
000003c0: 9cc0 4337 8c97 5035 0000 0000 0000 0000
000003d0: 0000 0000 0000 0000 0000 0000 0000 0000
000003e0: 0000 0000 0000 0000 0000 0000 0000 0000
000003f0: f1ec af39 0fff 7937 0fff 7937 cd82 a834

exp_avg f4 [64]
0.0017903305 0.0 0.0 0.0 0.0 -0.0024408277 -0.0029126382 -0.0027087037
-0.0055633048 0.0 0.002193435 0.0 0.0 0.0 0.0 0.0052630296
0.0 0.0036304784 0.0014892719 0.0 0.00089253124 -0.0053312127 -0.009970894 -0.0021552541
0.0 0.0 0.0 0.006015986 0.0 0.0 0.0 0.0
-0.0012524512 0.0 0.0037015534 0.0 0.002583872 0.0 0.0 0.0046898937
0.0 0.0 0.00950209 0.0 -0.002937553 -0.00480996 -0.0032669432 0.0
0.0 0.0048332303 -0.0010202434 0.0 0.0 0.0063491967 0.011260599 0.0
0.0031310369 0.0 -0.0029311152 0.0 0.0 0.0 -0.0016341065 -0.005186214
00000000: 86a9 ea3a 0000 0000 0000 0000 0000 0000
00000010: 0000 0000 4bf6 1fbb f6e1 3ebb 8284 31bb
00000020: 624c b6bb 0000 0000 bcbf 0f3b 0000 0000
00000030: 0000 0000 0000 0000 0000 0000 7e75 ac3b
00000040: 0000 0000 52ed 6d3b ac33 c33a 0000 0000
00000050: c2f8 693a 74b1 aebb f65c 23bc 2a3f 0dbb
00000060: 0000 0000 0000 0000 0000 0000 c021 c53b
00000070: 0000 0000 0000 0000 0000 0000 0000 0000
00000080: 4a29 a4ba 0000 0000 c395 723b 0000 0000
00000090: 2e56 293b 0000 0000 0000 0000 aead 993b
000000a0: 0000 0000 0000 0000 a7ae 1b3c 0000 0000
000000b0: f683 40bb de9c 9dbb 361a 56bb 0000 0000
000000c0: 0000 0000 1360 9e3b b0b9 85ba 0000 0000
000000d0: 0000 0000 ec0c d03b 607e 383c 0000 0000
000000e0: 1532 4d3b 0000 0000 f417 40bb 0000 0000
000000f0: 0000 0000 0000 0000 842f d6ba 1ef1 a9bb

exp_avg_sq f4 [64]
1.379334e-07 0.0 0.0 0.0 0.0 3.091759e-07 3.568614e-07 3.0485484e-07
1.9427648e-06 0.0 2.6293495e-07 0.0 0.0 0.0 0.0 1.4347838e-06
0.0 5.9352647e-07 9.018919e-08 0.0 6.435015e-08 1.3035007e-06 4.1113562e-06 1.990883e-07
0.0 0.0 0.0 1.527985e-06 0.0 0.0 0.0 0.0
1.412714e-07 0.0 7.770657e-07 0.0 3.138761e-07 0.0 0.0 9.772027e-07
0.0 0.0 3.680848e-06 0.0 3.589395e-07 9.797153e-07 4.937331e-07 0.0
0.0 1.2490934e-06 5.52562e-08 0.0 0.0 1.8682049e-06 5.3108142e-06 0.0
4.6071216e-07 0.0 3.549697e-07 0.0 0.0 0.0 1.7502147e-07 1.229243e-06
00000000: d81a 1434 0000 0000 0000 0000 0000 0000
00000010: 0000 0000 d0fc a534 a896 bf34 eeaa a334
00000020: 7260 0236 0000 0000 8129 8d34 0000 0000
00000030: 0000 0000 0000 0000 0000 0000 cc92 c035
00000040: 0000 0000 d452 1f35 08ae c133 0000 0000
00000050: de30 8a33 f1f3 ae35 48f4 8936 fac4 5534
00000060: 0000 0000 0000 0000 0000 0000 2a15 cd35
00000070: 0000 0000 0000 0000 0000 0000 0000 0000
00000080: 63b0 1734 0000 0000 8c97 5035 0000 0000
00000090: cd82 a834 0000 0000 0000 0000 6e28 8335
000000a0: 0000 0000 0000 0000 7d04 7736 0000 0000
000000b0: 45b4 c034 c37e 8335 1589 0435 0000 0000
000000c0: 0000 0000 86a6 a735 d652 6d33 0000 0000
000000d0: 0000 0000 08bf fa35 8c33 b236 0000 0000
000000e0: cc57 f734 0000 0000 aa92 be34 0000 0000
000000f0: 0000 0000 0000 0000 89ed 3b34 78fc a435

exp_avg f4 [64, 64]
-0.0011134642 0.0 0.0 0.0 0.0 -0.019391486 -0.012632382 -0.004071374
-0.0047738487 0.0 -0.01521897 0.0 0.0 0.0 0.0 -0.016958825
0.0 -0.005743459 -0.0051305178 0.0 -1.0582011e-05 -0.016594399 -0.00025896373 -0.019436128
0.0 0.0 0.0 -0.011332908 0.0 0.0 0.0 0.0
-0.008269392 0.0 -0.0138041135 0.0 -0.0101648085 0.0 0.0 -0.021517804
0.0 0.0 -0.0029370312 0.0 -0.012681473 -0.003755489 -0.01279775 0.0
0.0 -0.00050072174 -0.010764317 0.0 0.0 -0.030436374 -0.01927949 0.0
-0.012902421 0.0 -0.0009977741 0.0 0.0 0.0 -0.00053631293 -0.0045440593
0.0004641952 0.0 0.0 0.0 0.0 0.0120777385 0.020963468 0.011381863
0.011258065 0.0 0.036630537 0.0 0.0 0.0 0.0 0.020402562
0.0 0.01426778 0.01130345 0.0 0.0 0.03697145 0.00037733038 0.0066448087
0.0 0.0 0.0 0.023584353 0.0 0.0 0.0 0.0
0.009044485 0.0 0.033438485 0.0 0.026358107 0.0 0.0 0.029284602
0.0 0.0 0.0 0.0 0.018485079 0.0036362144 0.010217803 0.0
0.0 0.0017841507 0.0028466827 0.0 0.0 0.044382725 0.014257148 0.0
0.017333638 0.0 0.0023538335 0.0 0.0 0.0 0.00030849993 0.014915939
0.0006164278 0.0 0.0 0.0 0.0 0.0040293196 0.0 0.0025327099
0.002120467 0.0 0.004591034 0.0 0.0 0.0 0.0 0.0041560135
0.0 0.0 0.0016072113 0.0 0.0 0.0044555156 0.0 0.0
0.0 0.0 0.0 0.0032062405 0.0 0.0 0.0 0.0
0.002154331 0.0 0.0045760423 0.0 0.0 0.0 0.0 0.0042050807
0.0 0.0 0.00037566345 0.0 0.0 0.0 0.0 0.0
0.0 0.0 0.0 0.0 0.0 0.0057190973 0.005116699 0.0
0.004184432 0.0 0.0 0.0 0.0 0.0 0.0 0.00202537
-0.0004621941 0.0 0.0 0.0 0.0 -0.01666746 -0.014713091 -0.005581905
-0.001222106 0.0 -0.011082925 0.0 0.0 0.0 0.0 -0.007281135
0.0 -0.005935603 -0.0021426787 0.0 -2.6670097e-05 -0.002925956 -0.00020389375 -0.020763312
0.0 0.0 0.0 -0.007817496 0.0 0.0 0.0 0.0
-0.0075603183 0.0 -0.017024133 0.0 -0.013741583 0.0 0.0 -0.01804395
0.0 0.0 -0.003405762 0.0 -0.009291637 -0.0014591605 -0.009812488 0.0
0.0 -0.00041164938 -0.00803266 0.0 0.0 -0.010126879 -0.019711178 0.0
-0.01668039 0.0 -0.0012629103 0.0 0.0 0.0 -0.0005282451 -0.006763473
00000000: a9f1 91ba 0000 0000 0000 0000 0000 0000
00000010: 0000 0000 e5da 9ebc 0df8 4ebc 2969 85bb
00000020: f26d 9cbb 0000 0000 fd58 79bc 0000 0000
00000030: 0000 0000 0000 0000 0000 0000 3ced 8abc
00000040: 0000 0000 a033 bcbb e71d a8bb 0000 0000
00000050: 6489 31b7 faf0 87bc 86c5 87b9 8438 9fbc
00000060: 0000 0000 0000 0000 0000 0000 a9ad 39bc
00000070: 0000 0000 0000 0000 0000 0000 0000 0000
00000080: 587c 07bc 0000 0000 a62a 62bc 0000 0000
00000090: 4c8a 26bc 0000 0000 0000 0000 1b46 b0bc
000000a0: 0000 0000 0000 0000 357b 40bb 0000 0000
000000b0: f4c5 4fbc a61e 76bb a7ad 51bc 0000 0000
000000c0: 0000 0000 de42 03ba d15c 30bc 0000 0000
000000d0: 0000 0000 b455 f9bc 05f0 9dbc 0000 0000
000000e0: ad64 53bc 0000 0000 bec7 82ba 0000 0000
000000f0: 0000 0000 0000 0000 5a97 0cba 55e6 94bb
00000100: 3a5f f339 0000 0000 0000 0000 0000 0000
00000110: 0000 0000 b5e1 453c 94bb ab3c fe7a 3a3c
00000120: bf73 383c 0000 0000 e709 163d 0000 0000
00000130: 0000 0000 0000 0000 0000 0000 4623 a73c
00000140: 0000 0000 68c3 693c 1b32 393c 0000 0000
00000150: 0000 0000 606f 173d 6dd4 c539 b2bc d93b
00000160: 0000 0000 0000 0000 0000 0000 f933 c13c
00000170: 0000 0000 0000 0000 0000 0000 0000 0000
00000180: 522f 143c 0000 0000 cbf6 083d 0000 0000
00000190: f5ec d73c 0000 0000 0000 0000 43e6 ef3c
000001a0: 0000 0000 0000 0000 0000 0000 0000 0000
000001b0: 056e 973c 8e4d 6e3b 9268 273c 0000 0000
000001c0: 0000 0000 2ada e93a 698f 3a3b 0000 0000
000001d0: 0000 0000 a9ca 353d d096 693c 0000 0000
000001e0: 46ff 8d3c 0000 0000 c642 1a3b 0000 0000
000001f0: 0000 0000 0000 0000 29be a139 fc61 743c
00000200: c597 213a 0000 0000 0000 0000 0000 0000
00000210: 0000 0000 6208 843b 0000 0000 d2fb 253b
00000220: 88f7 0a3b 0000 0000 6270 963b 0000 0000
00000230: 0000 0000 0000 0000 0000 0000 2b2f 883b
00000240: 0000 0000 0000 0000 10a9 d23a 0000 0000
00000250: 0000 0000 93ff 913b 0000 0000 0000 0000
00000260: 0000 0000 0000 0000 0000 0000 ca1f 523b
00000270: 0000 0000 0000 0000 0000 0000 0000 0000
00000280: ad2f 0d3b 0000 0000 a0f2 953b 0000 0000
00000290: 0000 0000 0000 0000 0000 0000 c6ca 893b
000002a0: 0000 0000 0000 0000 b2f4 c439 0000 0000
000002b0: 0000 0000 0000 0000 0000 0000 0000 0000
000002c0: 0000 0000 0000 0000 0000 0000 0000 0000
000002d0: 0000 0000 4467 bb3b fba9 a73b 0000 0000
000002e0: 8f1d 893b 0000 0000 0000 0000 0000 0000
000002f0: 0000 0000 0000 0000 0000 0000 12bc 043b
00000300: a452 f2b9 0000 0000 0000 0000 0000 0000
00000310: 0000 0000 328a 88bc 2d0f 71bc 6ae8 b6bb
00000320: 132f a0ba 0000 0000 2895 35bc 0000 0000
00000330: 0000 0000 0000 0000 0000 0000 9696 eebb
00000340: 0000 0000 727f c2bb 2f6c 0cbb 0000 0000
00000350: 99b9 dfb7 65c1 3fbb 50cc 55b9 d217 aabc
00000360: 0000 0000 0000 0000 0000 0000 f414 00bc
00000370: 0000 0000 0000 0000 0000 0000 0000 0000
00000380: 8cbc f7bb 0000 0000 3276 8bbc 0000 0000
00000390: 6024 61bc 0000 0000 0000 0000 e8d0 93bc
000003a0: 0000 0000 0000 0000 3433 5fbb 0000 0000
000003b0: f33b 18bc 4d41 bfba 8fc4 20bc 0000 0000
000003c0: 0000 0000 a5d2 d7b9 6b9b 03bc 0000 0000
000003d0: 0000 0000 36eb 25bc 5679 a1bc 0000 0000
000003e0: 50a5 88bc 0000 0000 3d88 a5ba 0000 0000
000003f0: 0000 0000 0000 0000 ee79 0aba 20a0 ddbb

exp_avg_sq f4 [64, 64]
5.228074e-08 0.0 0.0 0.0 0.0 1.6003078e-05 7.0466886e-06 1.6096883e-06
9.340366e-07 0.0 1.1068857e-05 0.0 0.0 0.0 0.0 1.4801201e-05
0.0 1.7766899e-06 1.1576549e-06 0.0 6.1897705e-12 1.4191684e-05 3.855087e-09 1.5515074e-05
0.0 0.0 0.0 5.458738e-06 0.0 0.0 0.0 0.0
3.1317918e-06 0.0 8.630093e-06 0.0 4.3167797e-06 0.0 0.0 2.0518475e-05
0.0 0.0 5.171631e-07 0.0 1.07355945e-05 7.318436e-07 7.549001e-06 0.0
0.0 3.8532242e-08 5.2375563e-06 0.0 0.0 3.8616512e-05 1.5978512e-05 0.0
9.462575e-06 0.0 4.1836497e-08 0.0 0.0 0.0 1.3944429e-08 1.8715594e-06
1.4977548e-08 0.0 0.0 0.0 0.0 1.0202111e-05 4.364606e-05 5.565265e-06
8.12575e-06 0.0 8.588402e-05 0.0 0.0 0.0 0.0 4.1905478e-05
0.0 8.901685e-06 8.3405885e-06 0.0 0.0 8.708129e-05 1.8140904e-08 4.4153485e-06
0.0 0.0 0.0 3.6027443e-05 0.0 0.0 0.0 0.0
3.5646974e-06 0.0 7.218862e-05 0.0 4.475177e-05 0.0 0.0 7.527667e-05
0.0 0.0 0.0 0.0 5.1976087e-05 8.0819154e-07 7.311447e-06 0.0
0.0 2.0865366e-07 8.1036023e-07 0.0 0.0 0.0001264256 1.42445615e-05 0.0
1.30058015e-05 0.0 2.7476855e-07 0.0 0.0 0.0 1.4476752e-08 1.4305472e-05
4.686461e-08 0.0 0.0 0.0 0.0 2.0023683e-06 0.0 7.9113653e-07
5.545536e-07 0.0 2.59957e-06 0.0 0.0 0.0 0.0 2.1302692e-06
0.0 0.0 3.1858585e-07 0.0 0.0 2.4483668e-06 0.0 0.0
0.0 0.0 0.0 1.2678641e-06 0.0 0.0 0.0 0.0
5.7240754e-07 0.0 2.58262e-06 0.0 0.0 0.0 0.0 2.180867e-06
0.0 0.0 1.7405174e-08 0.0 0.0 0.0 0.0 0.0
0.0 0.0 0.0 0.0 0.0 4.033996e-06 3.2289418e-06 0.0
2.1595017e-06 0.0 0.0 0.0 0.0 0.0 0.0 5.0592865e-07
2.98321e-08 0.0 0.0 0.0 0.0 1.84801e-05 1.4473014e-05 5.148886e-06
1.131142e-07 0.0 8.996462e-06 0.0 0.0 0.0 0.0 2.5922275e-06
0.0 2.399824e-06 8.896037e-07 0.0 8.772628e-11 8.561218e-07 3.0442573e-09 2.878337e-05
0.0 0.0 0.0 2.5808808e-06 0.0 0.0 0.0 0.0
3.482665e-06 0.0 1.4983963e-05 0.0 1.2609803e-05 0.0 0.0 2.146278e-05
0.0 0.0 7.411247e-07 0.0 1.0929949e-05 2.6259508e-07 5.368748e-06 0.0
0.0 1.2129629e-08 6.8967825e-06 0.0 0.0 1.3340131e-05 2.588156e-05 0.0
1.8477225e-05 0.0 9.33325e-08 0.0 0.0 0.0 2.7904289e-08 2.7852568e-06
00000000: 488b 6033 0000 0000 0000 0000 0000 0000
00000010: 0000 0000 593e 8637 9872 ec36 780c d835
00000020: 82ba 7a35 0000 0000 61b4 3937 0000 0000
00000030: 0000 0000 0000 0000 0000 0000 ad52 7837
00000040: 0000 0000 9a76 ee35 b860 9b35 0000 0000
00000050: 7fc8 d92c d218 6e37 b475 8431 5e26 8237
00000060: 0000 0000 0000 0000 0000 0000 342a b736
00000070: 0000 0000 0000 0000 0000 0000 0000 0000
00000080: c62b 5236 0000 0000 f8c9 1037 0000 0000
00000090: dbd8 9036 0000 0000 0000 0000 171f ac37
000000a0: 0000 0000 0000 0000 2dd3 0a35 0000 0000
000000b0: 071d 3437 e973 4435 6d4d fd36 0000 0000
000000c0: 0000 0000 a67e 2533 44be af36 0000 0000
000000d0: 0000 0000 2af8 2138 9809 8637 0000 0000
000000e0: 73c1 1e37 0000 0000 b7af 3333 0000 0000
000000f0: 0000 0000 0000 0000 3f90 6f32 4b32 fb35
00000100: faa7 8032 0000 0000 0000 0000 0000 0000
00000110: 0000 0000 bc29 2b37 9a10 3738 43bd ba36
00000120: d553 0837 0000 0000 a21c b438 0000 0000
00000130: 0000 0000 0000 0000 0000 0000 aac3 2f38
00000140: 0000 0000 7258 1537 8eee 0b37 0000 0000
00000150: 0000 0000 699f b638 45d4 9b32 8e27 9436
00000160: 0000 0000 0000 0000 0000 0000 2c1c 1738
00000170: 0000 0000 0000 0000 0000 0000 0000 0000
00000180: 0939 6f36 0000 0000 f863 9738 0000 0000
00000190: d9b3 3b38 0000 0000 0000 0000 dbdd 9d38
000001a0: 0000 0000 0000 0000 0000 0000 0000 0000
000001b0: e600 5a38 80f2 5835 da54 f536 0000 0000
000001c0: 0000 0000 480a 6034 8887 5935 0000 0000
000001d0: 0000 0000 1d91 0439 edfb 6e37 0000 0000
000001e0: 7e33 5a37 0000 0000 e783 9334 0000 0000
000001f0: 0000 0000 0000 0000 6eb5 7832 8901 7037
00000200: 2f48 4933 0000 0000 0000 0000 0000 0000
00000210: 0000 0000 6d60 0636 0000 0000 7d5e 5435
00000220: a2dc 1435 0000 0000 4674 2e36 0000 0000
00000230: 0000 0000 0000 0000 0000 0000 bff5 0e36
00000240: 0000 0000 0000 0000 1b0a ab34 0000 0000
00000250: 0000 0000 9f4e 2436 0000 0000 0000 0000
00000260: 0000 0000 0000 0000 0000 0000 7b2b aa35
00000270: 0000 0000 0000 0000 0000 0000 0000 0000
00000280: 8ca7 1935 0000 0000 1351 2d36 0000 0000
00000290: 0000 0000 0000 0000 0000 0000 035b 1236
000002a0: 0000 0000 0000 0000 6282 9532 0000 0000
000002b0: 0000 0000 0000 0000 0000 0000 0000 0000
000002c0: 0000 0000 0000 0000 0000 0000 0000 0000
000002d0: 0000 0000 c35b 8736 ccb0 5836 0000 0000
000002e0: f5eb 1036 0000 0000 0000 0000 0000 0000
000002f0: 0000 0000 0000 0000 0000 0000 27cf 0735
00000300: be20 0033 0000 0000 0000 0000 0000 0000
00000310: 0000 0000 b605 9b37 1fd1 7237 98c4 ac36
00000320: 30e9 f233 0000 0000 83ef 1637 0000 0000
00000330: 0000 0000 0000 0000 0000 0000 21f6 2d36
00000340: 0000 0000 aa0c 2136 1acd 6e35 0000 0000
00000350: 81e9 c02e 3ed0 6535 2433 5131 d173 f137
00000360: 0000 0000 0000 0000 0000 0000 3233 2d36
00000370: 0000 0000 0000 0000 0000 0000 0000 0000
00000380: bbb7 6936 0000 0000 a263 7b37 0000 0000
00000390: b18e 5337 0000 0000 0000 0000 f80a b437
000003a0: 0000 0000 0000 0000 b4f1 4635 0000 0000
000003b0: c65f 3737 cbfa 8c34 3225 b436 0000 0000
000003c0: 0000 0000 ac62 5032 e96a e736 0000 0000
000003d0: 0000 0000 6dcf 5f37 3a1c d937 0000 0000
000003e0: 8aff 9a37 0000 0000 166e c833 0000 0000
000003f0: 0000 0000 0000 0000 2eb2 ef32 59ea 3a36

exp_avg f4 [64]
-0.0018136371 0.0017056334 0.00043465063 -0.0008824835 -0.0036410936 0.0031259279 0.0064074397 -0.019174831
-0.0038620979 -0.016875247 -0.0060656006 -0.0096482085 0.010041369 -0.0035271687 -0.008635145 0.012384385
-4.8976024e-05 -0.00078554224 -0.0035193241 0.0032620125 0.00028598477 0.012591319 -0.00021804227 -0.0029531887
0.0 -0.00757849 0.0049606184 -0.00011360727 -0.00396488 0.0009442991 -0.0013212692 0.0
0.004025321 0.003018627 -0.010235604 0.012642056 0.011886321 0.0 0.008447742 0.013394378
-0.0010636123 -0.0044047167 0.0 -0.0026410723 0.011209998 0.0038288566 -0.00602792 0.010929127
-0.0026306529 0.015678575 -0.0049912026 -0.0060484344 0.0 -0.0067101163 -0.0018188735 -0.00014345166
0.008446447 0.016293222 0.0 -0.0044296896 -0.0019003728 -5.5509854e-06 -0.0019916925 0.0045227385
00000000: 90b7 edba 8f8f df3a d2e1 e339 7756 67ba
00000010: 6a9f 6ebb 5edc 4c3b 80f5 d13b 8914 9dbc
00000020: 401b 7dbb f53d 8abc f2c1 c6bb 8513 1ebc
00000030: 8e84 243c 1228 67bb 6c7a 0dbc e0e7 4a3c
00000040: 9b6b 4db8 d9ec 4dba 76a4 66bb 7dc7 553b
00000050: 3af0 9539 d24b 4e3c 47a2 64b9 498a 41bb
00000060: 0000 0000 fb54 f8bb af8c a23b 7040 eeb8
00000070: d3eb 81bb d78a 773a 702e adba 0000 0000
00000080: d7e6 833b 28d4 453b 3cb3 27bc a020 4f3c
00000090: d8be 423c 0000 0000 6668 0a3c 1874 5b3c
000000a0: e868 8bba 7155 90bb 0000 0000 d715 2dbb
000000b0: 24aa 373c 8eed 7a3b dc85 c5bb 1510 333c
000000c0: 0867 2cbb 5b70 803c 3e8d a3bb f231 c6bb
000000d0: 0000 0000 89e0 dbbb 4467 eeba 836b 16b9
000000e0: f762 0a3c 5d79 853c 0000 0000 ee26 91bb
000000f0: ee15 f9ba 9a42 bab6 0e87 02bb 7b33 943b

exp_avg_sq f4 [64]
1.3578196e-07 1.7034534e-07 2.3300279e-08 8.742089e-08 6.381749e-07 4.4819737e-07 1.7456449e-06 1.5000505e-05
6.73199e-07 1.18757125e-05 1.590893e-06 3.8043427e-06 4.1897456e-06 7.177486e-07 3.1536572e-06 6.286489e-06
2.9583366e-10 3.9258578e-07 5.167776e-07 8.4957225e-07 5.0923013e-08 6.5063314e-06 4.754243e-09 5.1016315e-07
0.0 2.5182615e-06 1.0082248e-06 7.1392536e-10 6.985325e-07 6.04077e-08 1.9212015e-07 0.0
8.768428e-07 3.9124714e-07 4.448838e-06 7.1356917e-06 5.895976e-06 0.0 2.9993512e-06 7.2874445e-06
4.6010086e-08 9.924263e-07 0.0 3.4757988e-07 5.467523e-06 6.739494e-07 1.5910139e-06 5.274305e-06
2.8041592e-07 1.046549e-05 1.0238812e-06 1.5361934e-06 0.0 1.9507231e-06 1.3791441e-07 2.057838e-09
2.965913e-06 1.1163959e-05 0.0 1.1029418e-06 2.6984537e-07 3.0813438e-12 1.6279742e-07 8.861e-07
00000000: 76cb 1134 2ce8 3634 db25 c832 24bc bb33
00000010: 0c4f 2b35 c79f f034 e74b ea35 aeaa 7b37
00000020: e2b5 3435 cc3d 4737 ab86 d535 1c4e 7f36
00000030: a495 8c36 4fab 4035 6ba3 5336 88f0 d236
00000040: e3a2 a22f 94c4 d234 b0b8 0a35 290e 6435
00000050: 72b6 5a33 f650 da36 c45a a331 25f2 0835
00000060: 0000 0000 67ff 2836 5752 8735 083e 4430
00000070: ca82 3b35 7cb9 8133 9649 4e34 0000 0000
00000080: 2e60 6b35 990c d234 3a47 9536 206f ef36
00000090: 0cd6 c536 0000 0000 7648 4936 ac86 f436
000000a0: a09c 4533 8233 8535 0000 0000 049b ba34
000000b0: aa75 b736 73e9 3435 d28a d535 eff9 b036
000000c0: 128c 9634 f094 2f37 4a6c 8935 342f ce35
000000d0: 0000 0000 2be9 0236 a015 1434 de69 0d31
000000e0: ff09 4736 d74c 3b37 0000 0000 cb08 9435
000000f0: 44df 9034 8ed4 582c 6acd 2e34 54dc 6d35
